…
WARNING: Logging before InitGoogleLogging() is written to STDERR
E0923 23:04:03.956048 26747 upgrade_proto.cpp:618] Attempting to upgrade input file specified using deprecated V1LayerParameter: /media/lifelogging/HDD_2TB/CNN_MODELS/Caffenet_Reference/deploy_signed_features.prototxt
I0923 23:04:03.956210 26747 upgrade_proto.cpp:626] Successfully upgraded file specified using deprecated V1LayerParameter
I0923 23:04:03.956403 26747 net.cpp:42] Initializing net from parameters: 
name: "CaffeNet"
input: "data"
input_dim: 10
input_dim: 3
input_dim: 227
input_dim: 227
state {
  phase: TEST
}
layer {
  name: "conv1"
  type: "Convolution"
  bottom: "data"
  top: "conv1"
  convolution_param {
    num_output: 96
    kernel_size: 11
    stride: 4
  }
}
layer {
  name: "relu1"
  type: "ReLU"
  bottom: "conv1"
  top: "conv1"
}
layer {
  name: "pool1"
  type: "Pooling"
  bottom: "conv1"
  top: "pool1"
  pooling_param {
    pool: MAX
    kernel_size: 3
    stride: 2
  }
}
layer {
  name: "norm1"
  type: "LRN"
  bottom: "pool1"
  top: "norm1"
  lrn_param {
    local_size: 5
    alpha: 0.0001
    beta: 0.75
  }
}
layer {
  name: "conv2"
  type: "Convolution"
  bottom: "norm1"
  top: "conv2"
  convolution_param {
    num_output: 256
    pad: 2
    kernel_size: 5
    group: 2
  }
}
layer {
  name: "relu2"
  type: "ReLU"
  bottom: "conv2"
  top: "conv2"
}
layer {
  name: "pool2"
  type: "Pooling"
  bottom: "conv2"
  top: "pool2"
  pooling_param {
    pool: MAX
    kernel_size: 3
    stride: 2
  }
}
layer {
  name: "norm2"
  type: "LRN"
  bottom: "pool2"
  top: "norm2"
  lrn_param {
    local_size: 5
    alpha: 0.0001
    beta: 0.75
  }
}
layer {
  name: "conv3"
  type: "Convolution"
  bottom: "norm2"
  top: "conv3"
  convolution_param {
    num_output: 384
    pad: 1
    kernel_size: 3
  }
}
layer {
  name: "relu3"
  type: "ReLU"
  bottom: "conv3"
  top: "conv3"
}
layer {
  name: "conv4"
  type: "Convolution"
  bottom: "conv3"
  top: "conv4"
  convolution_param {
    num_output: 384
    pad: 1
    kernel_size: 3
    group: 2
  }
}
layer {
  name: "relu4"
  type: "ReLU"
  bottom: "conv4"
  top: "conv4"
}
layer {
  name: "conv5"
  type: "Convolution"
  bottom: "conv4"
  top: "conv5"
  convolution_param {
    num_output: 256
    pad: 1
    kernel_size: 3
    group: 2
  }
}
layer {
  name: "relu5"
  type: "ReLU"
  bottom: "conv5"
  top: "conv5"
}
layer {
  name: "pool5"
  type: "Pooling"
  bottom: "conv5"
  top: "pool5"
  pooling_param {
    pool: MAX
    kernel_size: 3
    stride: 2
  }
}
layer {
  name: "fc6"
  type: "InnerProduct"
  bottom: "pool5"
  top: "fc6"
  inner_product_param {
    num_output: 4096
  }
}
layer {
  name: "relu6"
  type: "ReLU"
  bottom: "fc6"
  top: "fc6"
}
layer {
  name: "drop6"
  type: "Dropout"
  bottom: "fc6"
  top: "fc6"
  dropout_param {
    dropout_ratio: 0.5
  }
}
layer {
  name: "fc7"
  type: "InnerProduct"
  bottom: "fc6"
  top: "fc7"
  inner_product_param {
    num_output: 4096
  }
}
I0923 23:04:03.956487 26747 net.cpp:340] Input 0 -> data
I0923 23:04:03.956545 26747 layer_factory.hpp:74] Creating layer conv1
I0923 23:04:03.956588 26747 net.cpp:84] Creating Layer conv1
I0923 23:04:03.956624 26747 net.cpp:380] conv1 <- data
I0923 23:04:03.956657 26747 net.cpp:338] conv1 -> conv1
I0923 23:04:03.956693 26747 net.cpp:113] Setting up conv1
I0923 23:04:03.956774 26747 net.cpp:120] Top shape: 10 96 55 55 (2904000)
I0923 23:04:03.956817 26747 layer_factory.hpp:74] Creating layer relu1
I0923 23:04:03.956856 26747 net.cpp:84] Creating Layer relu1
I0923 23:04:03.956889 26747 net.cpp:380] relu1 <- conv1
I0923 23:04:03.956923 26747 net.cpp:327] relu1 -> conv1 (in-place)
I0923 23:04:03.956957 26747 net.cpp:113] Setting up relu1
I0923 23:04:03.956993 26747 net.cpp:120] Top shape: 10 96 55 55 (2904000)
I0923 23:04:03.957058 26747 layer_factory.hpp:74] Creating layer pool1
I0923 23:04:03.957094 26747 net.cpp:84] Creating Layer pool1
I0923 23:04:03.957128 26747 net.cpp:380] pool1 <- conv1
I0923 23:04:03.957161 26747 net.cpp:338] pool1 -> pool1
I0923 23:04:03.957195 26747 net.cpp:113] Setting up pool1
I0923 23:04:03.957236 26747 net.cpp:120] Top shape: 10 96 27 27 (699840)
I0923 23:04:03.957269 26747 layer_factory.hpp:74] Creating layer norm1
I0923 23:04:03.957306 26747 net.cpp:84] Creating Layer norm1
I0923 23:04:03.957340 26747 net.cpp:380] norm1 <- pool1
I0923 23:04:03.957373 26747 net.cpp:338] norm1 -> norm1
I0923 23:04:03.957408 26747 net.cpp:113] Setting up norm1
I0923 23:04:03.957443 26747 net.cpp:120] Top shape: 10 96 27 27 (699840)
I0923 23:04:03.957476 26747 layer_factory.hpp:74] Creating layer conv2
I0923 23:04:03.957511 26747 net.cpp:84] Creating Layer conv2
I0923 23:04:03.957542 26747 net.cpp:380] conv2 <- norm1
I0923 23:04:03.957577 26747 net.cpp:338] conv2 -> conv2
I0923 23:04:03.957612 26747 net.cpp:113] Setting up conv2
I0923 23:04:03.957871 26747 net.cpp:120] Top shape: 10 256 27 27 (1866240)
I0923 23:04:03.957916 26747 layer_factory.hpp:74] Creating layer relu2
I0923 23:04:03.957952 26747 net.cpp:84] Creating Layer relu2
I0923 23:04:03.957986 26747 net.cpp:380] relu2 <- conv2
I0923 23:04:03.958019 26747 net.cpp:327] relu2 -> conv2 (in-place)
I0923 23:04:03.958052 26747 net.cpp:113] Setting up relu2
I0923 23:04:03.958087 26747 net.cpp:120] Top shape: 10 256 27 27 (1866240)
I0923 23:04:03.958120 26747 layer_factory.hpp:74] Creating layer pool2
I0923 23:04:03.958154 26747 net.cpp:84] Creating Layer pool2
I0923 23:04:03.958186 26747 net.cpp:380] pool2 <- conv2
I0923 23:04:03.958220 26747 net.cpp:338] pool2 -> pool2
I0923 23:04:03.958256 26747 net.cpp:113] Setting up pool2
I0923 23:04:03.958292 26747 net.cpp:120] Top shape: 10 256 13 13 (432640)
I0923 23:04:03.958324 26747 layer_factory.hpp:74] Creating layer norm2
I0923 23:04:03.958359 26747 net.cpp:84] Creating Layer norm2
I0923 23:04:03.958390 26747 net.cpp:380] norm2 <- pool2
I0923 23:04:03.958425 26747 net.cpp:338] norm2 -> norm2
I0923 23:04:03.958458 26747 net.cpp:113] Setting up norm2
I0923 23:04:03.958493 26747 net.cpp:120] Top shape: 10 256 13 13 (432640)
I0923 23:04:03.958526 26747 layer_factory.hpp:74] Creating layer conv3
I0923 23:04:03.958561 26747 net.cpp:84] Creating Layer conv3
I0923 23:04:03.958595 26747 net.cpp:380] conv3 <- norm2
I0923 23:04:03.958628 26747 net.cpp:338] conv3 -> conv3
I0923 23:04:03.958662 26747 net.cpp:113] Setting up conv3
I0923 23:04:03.959905 26747 net.cpp:120] Top shape: 10 384 13 13 (648960)
I0923 23:04:03.959993 26747 layer_factory.hpp:74] Creating layer relu3
I0923 23:04:03.960033 26747 net.cpp:84] Creating Layer relu3
I0923 23:04:03.960068 26747 net.cpp:380] relu3 <- conv3
I0923 23:04:03.960104 26747 net.cpp:327] relu3 -> conv3 (in-place)
I0923 23:04:03.960140 26747 net.cpp:113] Setting up relu3
I0923 23:04:03.960175 26747 net.cpp:120] Top shape: 10 384 13 13 (648960)
I0923 23:04:03.960209 26747 layer_factory.hpp:74] Creating layer conv4
I0923 23:04:03.960244 26747 net.cpp:84] Creating Layer conv4
I0923 23:04:03.960278 26747 net.cpp:380] conv4 <- conv3
I0923 23:04:03.960312 26747 net.cpp:338] conv4 -> conv4
I0923 23:04:03.960348 26747 net.cpp:113] Setting up conv4
I0923 23:04:03.961261 26747 net.cpp:120] Top shape: 10 384 13 13 (648960)
I0923 23:04:03.961321 26747 layer_factory.hpp:74] Creating layer relu4
I0923 23:04:03.961359 26747 net.cpp:84] Creating Layer relu4
I0923 23:04:03.961402 26747 net.cpp:380] relu4 <- conv4
I0923 23:04:03.961460 26747 net.cpp:327] relu4 -> conv4 (in-place)
I0923 23:04:03.961503 26747 net.cpp:113] Setting up relu4
I0923 23:04:03.961544 26747 net.cpp:120] Top shape: 10 384 13 13 (648960)
I0923 23:04:03.961580 26747 layer_factory.hpp:74] Creating layer conv5
I0923 23:04:03.961618 26747 net.cpp:84] Creating Layer conv5
I0923 23:04:03.961653 26747 net.cpp:380] conv5 <- conv4
I0923 23:04:03.961690 26747 net.cpp:338] conv5 -> conv5
I0923 23:04:03.961729 26747 net.cpp:113] Setting up conv5
I0923 23:04:03.962118 26747 net.cpp:120] Top shape: 10 256 13 13 (432640)
I0923 23:04:03.962167 26747 layer_factory.hpp:74] Creating layer relu5
I0923 23:04:03.962205 26747 net.cpp:84] Creating Layer relu5
I0923 23:04:03.962240 26747 net.cpp:380] relu5 <- conv5
I0923 23:04:03.962276 26747 net.cpp:327] relu5 -> conv5 (in-place)
I0923 23:04:03.962314 26747 net.cpp:113] Setting up relu5
I0923 23:04:03.962352 26747 net.cpp:120] Top shape: 10 256 13 13 (432640)
I0923 23:04:03.962386 26747 layer_factory.hpp:74] Creating layer pool5
I0923 23:04:03.962424 26747 net.cpp:84] Creating Layer pool5
I0923 23:04:03.962460 26747 net.cpp:380] pool5 <- conv5
I0923 23:04:03.962497 26747 net.cpp:338] pool5 -> pool5
I0923 23:04:03.962535 26747 net.cpp:113] Setting up pool5
I0923 23:04:03.962575 26747 net.cpp:120] Top shape: 10 256 6 6 (92160)
I0923 23:04:03.962611 26747 layer_factory.hpp:74] Creating layer fc6
I0923 23:04:03.962648 26747 net.cpp:84] Creating Layer fc6
I0923 23:04:03.962684 26747 net.cpp:380] fc6 <- pool5
I0923 23:04:03.962721 26747 net.cpp:338] fc6 -> fc6
I0923 23:04:03.962759 26747 net.cpp:113] Setting up fc6
I0923 23:04:04.018954 26747 net.cpp:120] Top shape: 10 4096 (40960)
I0923 23:04:04.019098 26747 layer_factory.hpp:74] Creating layer relu6
I0923 23:04:04.019146 26747 net.cpp:84] Creating Layer relu6
I0923 23:04:04.019186 26747 net.cpp:380] relu6 <- fc6
I0923 23:04:04.019227 26747 net.cpp:327] relu6 -> fc6 (in-place)
I0923 23:04:04.019268 26747 net.cpp:113] Setting up relu6
I0923 23:04:04.019306 26747 net.cpp:120] Top shape: 10 4096 (40960)
I0923 23:04:04.019341 26747 layer_factory.hpp:74] Creating layer drop6
I0923 23:04:04.019382 26747 net.cpp:84] Creating Layer drop6
I0923 23:04:04.019418 26747 net.cpp:380] drop6 <- fc6
I0923 23:04:04.019455 26747 net.cpp:327] drop6 -> fc6 (in-place)
I0923 23:04:04.019493 26747 net.cpp:113] Setting up drop6
I0923 23:04:04.019533 26747 net.cpp:120] Top shape: 10 4096 (40960)
I0923 23:04:04.019569 26747 layer_factory.hpp:74] Creating layer fc7
I0923 23:04:04.019608 26747 net.cpp:84] Creating Layer fc7
I0923 23:04:04.019642 26747 net.cpp:380] fc7 <- fc6
I0923 23:04:04.019680 26747 net.cpp:338] fc7 -> fc7
I0923 23:04:04.019719 26747 net.cpp:113] Setting up fc7
I0923 23:04:04.435897 26747 net.cpp:120] Top shape: 10 4096 (40960)
I0923 23:04:04.436034 26747 net.cpp:169] fc7 does not need backward computation.
I0923 23:04:04.436075 26747 net.cpp:169] drop6 does not need backward computation.
I0923 23:04:04.436111 26747 net.cpp:169] relu6 does not need backward computation.
I0923 23:04:04.436146 26747 net.cpp:169] fc6 does not need backward computation.
I0923 23:04:04.436180 26747 net.cpp:169] pool5 does not need backward computation.
…
